data/centralized_0_scripted.pt (torch, 126466 bytes, 9 tensors)

weight f4 [148, 39]
000000 97 0a 5d 3c a9 d7 5e 3d fd 71 99 3d 8c 7a 41 3d
       0.013491294 0.05440489 0.07492445 0.04723601
000010 2e 53 3e 3d d9 9f 8e bb 49 f6 02 3d 4d 81 ed 3b
       0.046466045 -0.0043525514 0.031973157 0.00724808
000020 e6 23 b6 3d 3a e6 12 3e 31 79 70 3e 07 01 a8 bd
       0.08893566 0.14345637 0.23483731 -0.08203321
000030 43 37 74 3c 1e cf 89 3a a5 b8 47 be 25 1f 31 3e
       0.014905754 0.0010513996 -0.1950403 0.17297037
000040 6c 63 0d 3c 6c 2b 9e bd 8a f7 b1 3d 34 48 00 3d
       0.008629661 -0.07723126 0.086897925 0.03131886
000050 e3 14 3f 3d 96 9e 44 3d 19 e4 75 3e 56 71 c9 3d
       0.04665078 0.0480028 0.24012794 0.0983607
000060 1a 01 8b bd 90 5e b9 bd 13 1e d0 3c bd 78 43 3c
       -0.067873195 -0.090512395 0.025404966 0.011930642
000070 c2 49 e5 3d df ef bc 3d 6b d9 dc bd a8 d1 35 3d
       0.11195709 0.09225439 -0.10783657 0.044389397
000080 7d d7 81 3d 4c 62 f4 bc dc 6b 0f 3c d5 87 33 3d
       0.06339929 -0.029832028 0.008753743 0.04383071
000090 ba e9 55 bd 50 00 0b 3d a2 b7 d7 bd 7b c1 71 bd
       -0.052224852 0.033935845 -0.10533072 -0.059022408
0000a0 ac 7a 40 bd 33 d1 47 3e 9c 3b e0 3d 02 e6 0d be
       -0.04699199 0.19513397 0.109488696 -0.13857272
0000b0 4a c9 8b 3d 94 7e 07 3d e1 67 a4 bd 05 d0 61 3e
       0.06825502 0.0330797 -0.08027626 0.2205201
0000c0 fd 3b 12 bd 4e 40 02 be 27 d9 34 be 83 6c 20 3d
       -0.03570174 -0.12719843 -0.17660962 0.039165985
0000d0 19 64 46 3c f5 61 7b bd a1 a9 12 3d 04 54 a0 3d
       0.012108826 -0.061372716 0.035806302 0.07828525
0000e0 a1 bb 51 3d 06 10 bd 3c 40 1c bb bc 1e 2f e1 bc
       0.051204327 0.02307893 -0.02284062 -0.027488288
0000f0 3f 7f 49 bd f4 d5 99 be 61 e4 79 be 42 9f f0 3d
       -0.049193617 -0.30046046 -0.24403526 0.11749126
000100 a3 aa ba bd 83 e2 ea 3d 71 b8 fd 3d 29 24 2e be
       -0.091145776 0.11468985 0.12388695 -0.17005982
000110 f7 bc e1 bc 4b a3 0d 3d 0d 05 7c be c8 f8 12 3e
       -0.027555926 0.034579556 -0.24611302 0.14352715
000120 dc 69 3c 3e e8 1a d7 3b 86 b2 04 3c f0 8c c6 bd
       0.18399757 0.006564487 0.008099204 -0.096948504
000130 31 b9 b3 bd c4 01 64 3b 1a 30 7e bd ed 65 44 3e
       -0.08775557 0.0034791091 -0.062057592 0.19179507
000140 bd 59 2a 3e e7 6e 3e 3d 05 59 fb bd 7e 27 ee 3d
       0.16635795 0.046492483 -0.122728385 0.11628626
000150 24 51 8a 3c bf b9 ef bd 25 19 13 bd 44 2e 27 bd
       0.016884394 -0.1170535 -0.03591265 -0.040815607
000160 6b 07 18 be 14 90 fa 3a 00 10 c2 3b 55 03 25 3c
       -0.1484658 0.0019116425 0.0059223175 0.010071595
000170 e9 f0 fc bd 58 5f 3e bd dd ab d1 bb 90 16 83 bd
       -0.123506375 -0.046477646 -0.0063986615 -0.06400788
000180 c0 75 df 3d 6e 17 ff 3c 91 fe f9 bc fc a2 ac 3e
       0.10911131 0.031139102 -0.030516895 0.33718097
000190 7b 35 26 be 9f ca 96 bd 2b 5f f6 bb 33 ab 6c bd
       -0.16231339 -0.07362866 -0.007518669 -0.057780456
0001a0 24 c7 f3 bc 0c fc dd 3d 60 76 5f be 40 74 0c bd
       -0.029758044 0.1083909 -0.218225 -0.034290552
0001b0 e9 d8 7b 3d 27 e3 11 3d c5 08 c0 bd 5e bc 24 be
       0.06148616 0.03561702 -0.09376673 -0.16087481
0001c0 b3 0c e5 3d 5d 8d 79 3d cf 8f 47 be d9 a1 9c 3d
       0.11184063 0.06092583 -0.19488452 0.076480575
0001d0 35 2f 06 3e 53 08 c8 3d 29 3b 8e 3d 16 bb ed bb
       0.13103946 0.09767213 0.06944878 -0.0072549684
0001e0 2f 89 10 3d 8b 44 00 be 18 d7 c9 bc b3 6b be 3c
       0.03528708 -0.12526147 -0.024638698 0.023244714
0001f0 0c 88 61 3e 0e b6 55 3d 7c a8 d3 bd 56 53 e6 bd
       0.22024554 0.052175574 -0.1033487 -0.11246364
000200 e1 e2 f3 bd 9d 5d 22 bd 7d 89 8c bd 3f 75 84 bc
       -0.11908508 -0.039640058 -0.06862161 -0.016169189
000210 6b 43 03 3e 46 72 ba 3d bc 1e 2e 3e 87 69 10 3c
       0.12818687 0.09103827 0.17003912 0.008814222
000220 2e 8a 8c 3d cd b2 e3 3d 96 c1 aa bd ef 65 ac bd
       0.06862293 0.11118088 -0.08337705 -0.0841788
000230 c4 61 cf 3c 4c e5 02 3d 44 cf db bd dc 4d 4c bd
       0.025315173 0.031956956 -0.10732892 -0.04987894
000240 21 d7 8d 3d 8c 8f 09 3e 28 e1 90 3d d9 42 c3 bc
       0.06925798 0.13433665 0.07074195 -0.023835586
000250 35 60 10 bc a6 50 5a 3d 7d 38 26 be 63 e9 6e 3d
       -0.008812 0.05329957 -0.16232486 0.058328044
000260 a3 4a de bd 3f 28 c6 3d 2f 87 4b be be 95 ed bd
       -0.108540796 0.09675645 -0.19875787 -0.11600827
000270 ce ff 56 3e 2b c0 3c be ea 74 81 3d 4c c7 82 3c
       0.20996019 -0.18432681 0.06321128 0.015964173
000280 fd 55 73 be 55 da 13 be fc 65 41 bc 85 ef e7 3d
       -0.2376327 -0.14438756 -0.0118041 0.113249816
000290 26 9f 0f be b7 a1 26 3e 17 fe cc bc d7 c6 8e 3d
       -0.14025554 0.16272627 -0.025023503 0.069715194
0002a0 e4 69 ab bd 9e e1 9f 3c 41 32 2b bd 34 fa 30 3c
       -0.083698064 0.019516762 -0.041795973 0.010801841
0002b0 77 a9 8e 3d 1d 99 09 3c 02 52 80 3e 3b 28 94 be
       0.069659166 0.008398321 0.25062567 -0.28936943
0002c0 25 e9 e7 3c c9 37 5d bd b4 f7 de bd ef 61 9c bc
       0.028309414 -0.05400828 -0.10887089 -0.019089667
0002d0 d5 f1 c9 3d b9 48 05 3e 7e 07 01 bd 70 53 7c 3c
       0.09860579 0.13016023 -0.031501286 0.015400752
0002e0 b3 00 57 bc 83 63 55 3e 37 0e 59 bd a1 af 24 3e
       -0.013122725 0.20838742 -0.052992072 0.16082622
0002f0 1c be 67 bd 90 ee 62 bc f1 b0 5b 3d 2a 72 3c 3c
       -0.056577787 -0.013850823 0.05363554 0.011501828
000300 80 7a c2 bd 08 0a b2 3c 53 d8 f4 bd cd 19 3f be
       -0.09496021 0.021733299 -0.11955323 -0.18662186
000310 2b d1 2f 3e 20 bf 53 3e b8 4d 9c 3d 3d 91 3f 3e
       0.17169635 0.20678377 0.07632011 0.18707748
000320 2a 77 af 3d b6 49 9f bc ac 95 cd 3d b9 0c e6 3d
       0.085676506 -0.019444328 0.10038313 0.112328954
000330 ea 1a d1 3c 4e 7e d0 bd 4d 54 a4 3d 6a 19 3b bd
       0.025525529 -0.10180341 0.080238916 -0.045678534
000340 65 29 43 3d bb ad 29 3c 6b 18 8c bd 54 9c 59 3e
       0.0476469 0.010356362 -0.06840595 0.2125104
000350 88 b6 a6 3c d1 8c 91 3b 6a 9e 9e bd 60 be 84 be
       0.02035071 0.0044418355 -0.07745059 -0.25926495
000360 42 fe df 39 a0 0a 40 bd c7 88 07 be 44 70 e4 bd
       0.0004272331 -0.046885133 -0.1323577 -0.111542255
000370 c4 a3 d3 bc 62 53 42 3d 56 54 ac 3d f6 4e 8d bc
       -0.025834925 0.0474428 0.08414523 -0.017249566
000380 8a 38 06 3c c5 28 55 be 22 66 2c 3d c7 87 24 bd
       0.008192191 -0.20816334 0.04208959 -0.04016855
000390 cb 68 4c bd 7f b9 d9 bd e8 20 14 bc ac 2c d3 bd
       -0.049904626 -0.10631084 -0.009041049 -0.10311255
0003a0 3b f0 81 bc 36 5d 59 bd 31 49 31 be fd 48 48 be
       -0.015861621 -0.05306741 -0.17313077 -0.19559093
0003b0 67 66 28 be cf 5a 03 be c0 ec 19 be 8d f3 7f 3c
       -0.16445313 -0.1282761 -0.15031719 0.015622032
0003c0 c6 eb 07 3e ef 00 c2 3d ca 13 31 bd 30 bb e4 bd
       0.13273534 0.09472834 -0.043231763 -0.11168516
0003d0 32 98 e2 3d a8 81 64 3d 1d dd 07 be 58 08 b7 bc
       0.11064185 0.055787712 -0.13267942 -0.022342846
0003e0 c3 43 0f be 16 14 fe bd 38 8b 1b 3e 84 59 91 be
       -0.13990693 -0.12406175 0.15189826 -0.28388608
0003f0 30 38 2d bd d0 88 4f 3d e8 f8 59 3c af 06 82 be
       -0.042289913 0.050667584 0.013303973 -0.25395724

bias f4 [148]
000000 28 3b 95 3d 80 4c 8b bd 51 3d 04 be 64 13 25 bc
       0.07286674 -0.068017006 -0.12914015 -0.010075424
000010 9f 32 a4 bd a0 3b dc 3d 3d 8a 9b 3d 96 02 16 bc
       -0.08017468 0.1075356 0.07594726 -0.00915589
000020 4a ed 96 3d 48 0a a6 bd e6 4a 01 3e 41 3f 35 3d
       0.07369478 -0.0810743 0.12626228 0.044249777
000030 08 0f 21 3b ab a6 a6 3d 06 fa ee 3d b0 99 2b 3d
       0.002457561 0.08137258 0.11668782 0.041894615
000040 cd d1 b5 bd 43 2b 07 3e c9 60 bd 3d 46 b6 a4 3d
       -0.08877907 0.13200097 0.09246976 0.080425784
000050 a9 11 05 be 95 fd b7 3d d4 fd 02 3e dc fc 13 3d
       -0.12995018 0.08983914 0.1279214 0.036129817
000060 b4 cd dd 3d 34 fb 77 bd 89 f6 ae 3d c6 57 fb bd
       0.108302504 -0.0605423 0.085431166 -0.12272601
000070 a3 db a2 bd db 7b c6 3d 5c 75 cf bc 99 c6 de 3c
       -0.07952049 0.09691592 -0.025324516 0.027194308
000080 76 41 03 3e 08 c4 72 3d ad 1a 99 bd 95 6e 62 3d
       0.1281794 0.05926898 -0.07475791 0.05528124
000090 fa d0 3d 3d e5 f1 81 bd ab a9 f0 3c ff 4a d7 bd
       0.046341874 -0.06344966 0.029377779 -0.10512351
0000a0 6a 04 ec bd 0d 46 f3 bd ff f5 d3 3a 24 19 92 bd
       -0.115242794 -0.118785955 0.0016171335 -0.071337014
0000b0 c2 4b df bb 53 25 af 3b 86 7b ce 3d bc f5 14 3d
       -0.006814451 0.0053450256 0.10082154 0.036367163
0000c0 d6 fc 4b bd a3 23 cb 3c 6c 48 c4 3d 7d d2 e2 bd
       -0.04980167 0.024797266 0.09584126 -0.11075304
0000d0 49 97 c2 3d 9d 7f 1b 3e c1 4a 96 bb 15 23 b1 3d
       0.095015116 0.151854 -0.004586548 0.086492695
0000e0 0f f8 b9 bd d9 e9 da 3d 63 69 27 be db 02 88 ba
       -0.090805165 0.10689134 -0.16348796 -0.0010376828
0000f0 01 da 61 bd 02 04 c3 3d e0 76 12 3c 4f e4 9d bd
       -0.055139545 0.09522249 0.008939475 -0.07709562
000100 4e b0 6f bd be 5f d2 bd 1c 97 a2 3d 05 bd b2 bd
       -0.058517747 -0.102721676 0.07938978 -0.08727459
000110 f9 92 10 3e 3b ac 9c 3b a9 b0 57 3d 87 18 06 be
       0.14118566 0.0047812737 0.05265871 -0.13095294
000120 5f ac a1 bd f3 06 cf 3c 35 6a e4 3c f5 76 cb bd
       -0.07894205 0.025271868 0.027882675 -0.09934799
000130 7b 1c 30 3d f3 7a ae 3d f8 81 35 bd ce 52 d9 3c
       0.04299591 0.085195445 -0.0443134 0.026528742
000140 a5 7a 06 3e 24 8b 09 3e 9c 2f b2 3d 67 bb fa 3d
       0.13132723 0.13431984 0.08700487 0.122427754
000150 d7 ab ab bc f3 f7 bd 3d 58 54 dc 3d 4b 3b d9 3d
       -0.020955963 0.09275808 0.10758275 0.10607012
000160 70 d3 b1 bc b0 ab c2 bd 42 75 9a 3d 4e cb f0 3d
       -0.021707267 -0.09505403 0.075418964 0.11757527
000170 bd 2f ed 3d c7 82 85 bc 1b db 0b 3e c1 73 5a bd
       0.11581371 -0.016297711 0.13657801 -0.053333048
000180 4c 60 e4 3d 98 a0 01 be af dd 67 3c 76 d2 8e 3d
       0.1115118 -0.12658918 0.014151975 0.06973736
000190 f9 cd e4 bc d7 ae 0a be 26 20 1a 3d 59 95 a1 bd
       -0.027930247 -0.13543259 0.037628315 -0.07889814
0001a0 a4 f5 a2 bd 4c a3 70 3b ba 26 f6 bd 93 ba c3 3d
       -0.079570085 0.0036718426 -0.12019105 0.095570706
0001b0 63 42 4c 3d b1 dd 12 bd 75 0a 4f bd 21 16 a5 bd
       0.049868 -0.035855953 -0.050547082 -0.080608614
0001c0 e5 a0 af 3c ed a4 cb bd 45 c4 14 be 77 82 18 be
       0.021439025 -0.099435665 -0.14527996 -0.14893518
0001d0 4f 53 0c 3e 29 cb 85 bb 69 0f 1d 3e dc 10 ca bd
       0.13703655 -0.0040830565 0.1533791 -0.09866497
0001e0 51 02 10 bd 94 78 19 3e 45 71 09 3e 4d dc c3 3d
       -0.03515846 0.14987403 0.13422115 0.095635034
0001f0 5f 57 ce 3d 53 13 72 bd 43 6f 1d 3e 22 e3 e2 3d
       0.100752585 -0.05910046 0.15374474 0.110784784
000200 9d 31 cb 3d a4 b4 ef bd 9f c6 f3 bc fc 27 ef 3c
       0.09921572 -0.11704376 -0.029757796 0.02919387
000210 92 09 cc bd c6 16 21 bd 83 11 8b 39 e6 d6 5c bd
       -0.09962763 -0.03932836 0.00026525193 -0.05391588
000220 4a d6 c0 3d 67 90 e1 bd c6 84 cf ba 2d 43 ad bc
       0.094158724 -0.11013871 -0.0015832416 -0.021150196
000230 35 10 de 3d 41 3f 06 3e 6f 6b cc 3d f3 5a e1 3d
       0.10842935 0.13110067 0.09981429 0.11003675
000240 ee 49 15 3e 23 e4 ae bd cc 58 f3 3c 2c 7b 30 bd
       0.14578983 -0.085396074 0.029705428 -0.043086216

weight f4 [148]
000000 de 1f 7d 3f 2e 49 8d 3f 2d 01 7f 3f a5 16 84 3f
       0.9887675 1.1037958 0.9961117 1.031941
000010 4b c1 84 3f ae fa 7b 3f 32 aa 7e 3f 7a c5 8a 3f
       1.0371488 0.9842938 0.9947845 1.0841515
000020 f3 46 7e 3f f5 fd 8b 3f df 2a 79 3f 88 9f 83 3f
       0.9932701 1.0936877 0.9733104 1.028306
000030 65 07 84 3f 4e b8 7c 3f 8c 2e 7b 3f 1c 48 80 3f
       1.0314757 0.98718727 0.981179 1.0022006
000040 26 21 90 3f c5 9d 7e 3f 5a e7 7d 3f 78 bd 80 3f
       1.1260116 0.9945949 0.9918114 1.0057821
000050 5f 01 88 3f 6a ca 7e 3f 10 6d 7d 3f 53 c6 82 3f
       1.0625418 0.9952761 0.9899454 1.0216774
000060 e6 01 80 3f c3 2b 83 3f 92 79 7f 3f 59 cf 8c 3f
       1.0000579 1.024773 0.99794877 1.1000777
000070 91 0e 80 3f 42 36 7e 3f c1 bd 94 3f 62 36 85 3f
       1.0004445 0.9930154 1.1620408 1.0407221
000080 a8 b6 7f 3f 8e be 7d 3f 21 d8 87 3f b3 52 81 3f
       0.99888086 0.9911889 1.0612832 1.0103363
000090 b1 60 89 3f 06 44 80 3f 98 36 7b 3f 30 48 7d 3f
       1.0732633 1.0020759 0.9813018 0.98938274
0000a0 d3 42 8d 3f 24 79 88 3f 1f 11 87 3f 07 b3 86 3f
       1.1036018 1.0661969 1.05521 1.0523385
0000b0 3a fc 7f 3f 1f e9 83 3f d3 e9 7a 3f 81 b9 80 3f
       0.9999424 1.0305518 0.9801304 1.0056611
0000c0 09 2e 84 3f 5c 63 8c 3f cd 36 7c 3f 87 51 85 3f
       1.0326549 1.0967822 0.9852112 1.0415505
0000d0 fa ca 7a 3f 8e d2 7e 3f 7a 33 83 3f d0 9d 7b 3f
       0.9796597 0.9954003 1.0250084 0.9828768
0000e0 91 a9 8a 3f f5 86 78 3f 8b 15 8a 3f d8 49 83 3f
       1.0832998 0.9708093 1.0787824 1.025691
0000f0 cf b1 82 3f f9 f4 80 3f f1 96 83 3f 45 45 7f 3f
       1.0210513 1.007476 1.0280439 0.9971507
000100 d4 7e 8d 3f bd b9 82 3f 5d c7 7d 3f c6 cd 84 3f
       1.105433 1.0212933 0.9913233 1.0375297
000110 b1 e5 7d 3f dc b4 87 3f f6 13 83 3f e5 08 93 3f
       0.99178606 1.0602069 1.0240467 1.1487089
000120 c5 0c 88 3f a7 aa 82 3f c0 76 80 3f b0 99 82 3f
       1.0628897 1.0208329 1.003624 1.0203152
000130 0d 9b 81 3f 60 a4 78 3f d0 bd 8a 3f 33 f8 83 3f
       1.0125443 0.97125816 1.0839176 1.0310119
000140 82 eb 7c 3f 44 81 7b 3f 2e c6 7f 3f 05 f0 7d 3f
       0.98796856 0.9824412 0.99911773 0.99194366
000150 d7 68 86 3f 89 d1 7d 3f b6 0c 80 3f 57 2a 7f 3f
       1.0500745 0.9914785 1.0003879 0.9967398
000160 27 de 93 3f 3f e7 82 3f 1c ab 7f 3f 76 c3 75 3f
       1.155217 1.0226821 0.9987047 0.96001375
000170 a9 df 7e 3f 2c 95 80 3f 43 04 7c 3f 29 a9 79 3f
       0.9956003 1.0045524 0.98444 0.9752374
000180 2c 66 7c 3f 1f 96 83 3f e7 6e 7b 3f 2f 1f 7d 3f
       0.985934 1.0280188 0.982161 0.9887571
000190 96 79 81 3f c8 f6 83 3f 14 24 83 3f 51 85 78 3f
       1.011523 1.0309687 1.0245385 0.97078425
0001a0 94 1c 86 3f 3f 4b 81 3f d2 08 82 3f d0 c2 82 3f
       1.0477471 1.0101088 1.0158942 1.0215702
0001b0 35 9c 7d 3f a8 1f 80 3f 9d dd 86 3f ce 2e 8c 3f
       0.9906648 1.0009661 1.0536381 1.0951784
0001c0 91 f7 7c 3f 6f 28 84 3f 8e e8 83 3f f8 c7 83 3f
       0.98815256 1.0324839 1.0305345 1.0295401
0001d0 23 6e 7b 3f c0 9d 7c 3f 58 e3 7f 3f f1 9d 87 3f
       0.9821493 0.9867821 0.99956274 1.0595075
0001e0 68 16 82 3f c9 f9 79 3f 42 45 7f 3f c9 1f 75 3f
       1.0163088 0.97646767 0.99715054 0.95751625
0001f0 c7 d3 79 3f 8b 9b 86 3f d6 4c 7d 3f 46 7d 76 3f
       0.9758877 1.0516218 0.9894537 0.962849
000200 4c 09 7c 3f db 9c 80 3f b7 b0 7f 3f 2b 50 7c 3f
       0.98451686 1.0047868 0.9987902 0.98559827
000210 a1 2a 82 3f 97 f1 81 3f c3 c6 84 3f 5e b9 83 3f
       1.0169259 1.0151852 1.0373157 1.0290945
000220 11 2f 7c 3f 01 86 8d 3f ea 7f 7e 3f b5 5c 82 3f
       0.9850932 1.105652 0.9941393 1.0184542
000230 eb 00 81 3f f7 59 88 3f 9f 04 82 3f 57 e2 7e 3f
       1.0078405 1.0652455 1.015766 0.9956412
000240 53 f9 7a 3f 34 06 80 3f e7 b0 7c 3f c4 18 8d 3f
       0.9803669 1.0001893 0.9870743 1.1023183

bias f4 [148]
000000 77 45 65 bb fa b4 2f 3d ca 4d 05 bb d0 7a e6 bb
       -0.0034984031 0.042897202 -0.0020340555 -0.0070336834
000010 a0 26 6e 3c 5b 26 a5 bb 1f 49 67 bc 3e 22 ac 3b
       0.014535576 -0.0050399727 -0.0141165545 0.0052531054
000020 54 c6 34 bb 9d 36 4f 3c 92 92 68 bc aa 82 04 3a
       -0.0027584033 0.012647298 -0.014195101 0.0005054871
000030 3c 21 a6 3c 30 39 29 bc 51 23 5c bc 24 d7 c0 bb
       0.02027952 -0.010328576 -0.013436154 -0.0058850218
000040 19 2c 49 3b 59 bc cb bb e3 15 47 bc 04 7a 5f b9
       0.003069645 -0.006217521 -0.012151214 -0.00021312392
000050 e6 7f e3 39 25 60 99 bb f6 82 7b bb ac 20 37 bb
       0.00043392106 -0.004680651 -0.003837762 -0.0027943058
000060 2e 46 77 bb 1d 85 f9 3b ac be e8 bb 31 fe 95 3c
       -0.003773104 0.0076147453 -0.007102808 0.018309684
000070 96 a7 49 3a b6 d2 e5 bb ef 3e 1c 3d 61 57 28 3c
       0.0007692514 -0.007013644 0.038145956 0.010274739
000080 70 58 34 3b cd 53 a2 bb cb 8d 90 3c 48 93 9a 3b
       0.0027518533 -0.0049538375 0.017645737 0.0047172643
000090 46 fe 6d 3c bf 35 7b 3c 51 c1 e0 bb bc 6c c3 bc
       0.014525956 0.015332638 -0.0068589826 -0.02385556
0000a0 7b 6e e4 39 13 16 c4 3c 8c 51 14 3d aa cc 47 3c
       0.00043569863 0.023936307 0.03621058 0.012194792
0000b0 2e 43 f5 bc bd 6a 6d 3c 9e e4 fc b9 e2 d1 4b 3b
       -0.02993926 0.01449078 -0.0004823552 0.0031100442
0000c0 cc 8c ae 39 bc 6c 40 3c 3f 4c 8a bc 34 e3 f8 ba
       0.00033292768 0.011744674 -0.01688206 -0.001898861
0000d0 84 79 7f 38 bd f1 79 ba f8 3b 59 3c cc 95 d7 b8
       6.0909908e-05 -0.0009534618 0.013258927 -0.00010279901
0000e0 ef 76 4a 3d 69 56 c0 bc 55 9d 85 bc 8a 35 e7 3b
       0.04942983 -0.023478704 -0.016310373 0.007055943
0000f0 25 fa 34 bb b7 27 35 3b b0 96 1d 3c 25 3c f1 bb
       -0.0027614918 0.002764208 0.009618446 -0.007361906
000100 86 77 5a 3c 4f b6 55 bc fc b3 91 bb 7e fe 7c 3c
       0.013334161 -0.013043954 -0.0044465046 0.015441535
000110 c1 7e 28 bb 86 96 1d bb 18 b7 de bb f7 57 62 3d
       -0.0025710317 -0.0024046018 -0.006796729 0.05525967
000120 a9 cd 4c bc 78 9d aa 3c f5 42 58 3b bd e0 72 3c
       -0.012500205 0.02082704 0.0032998894 0.01482409
000130 71 23 37 3b 97 03 bc bc 14 07 17 bb 29 cb b1 3c
       0.0027944709 -0.02295093 -0.002304499 0.02170332
000140 2a 03 93 bb b5 8b 10 bc bd a6 49 ba 1e 70 c0 bc
       -0.004486461 -0.008822371 -0.00076923874 -0.023490962
000150 22 e1 0d 3d ca e2 28 bc e4 cc 0d ba b4 d6 cf bb
       0.03463853 -0.010307977 -0.0005409254 -0.0063427333
000160 3a 2a f7 3c 07 e1 c0 3b 1c 85 d4 3a 2a 5e b4 bc
       0.030171502 0.0058862003 0.0016213986 -0.022017557
000170 0f be cc bb 18 63 31 bc 6d 85 48 bc 53 c3 8d bc
       -0.0062482427 -0.010826848 -0.012238842 -0.017305052
000180 d1 ff 8a ba c4 9d 29 3b 2b 18 8d 3b fc 4e b1 bc
       -0.0010604804 0.002588139 0.0043058596 -0.021644108
000190 2d 7f 51 3c 8a 78 b7 3c cd cc 91 3b ad 3e 75 bc
       0.012786669 0.022396345 0.004449463 -0.014968556
0001a0 fe 28 88 bb ce 71 9d bc 71 9f cf 36 1d bf 52 3b
       -0.0041552773 -0.019219305 6.187642e-06 0.003215737
0001b0 1b 6a 5e bc 35 a6 85 bc 9b 13 ba 3c 2d 99 97 3c
       -0.013575102 -0.016314605 0.022714427 0.018505657
0001c0 cb 74 f8 3b 15 2b 29 3c 92 bf 3e bc 42 ec 8e bc
       0.007582282 0.010325213 -0.011642354 -0.01744664
0001d0 b6 ad 75 bc 03 8d 91 ba 3c 68 1b bb 22 99 5e 3c
       -0.014995029 -0.0011104647 -0.0023713252 0.013586314
0001e0 92 ca 50 3c 55 e8 03 bb c7 ac e8 bb 8d 11 54 bc
       0.012743609 -0.0020127494 -0.007100675 -0.012943638
0001f0 2f 2a 00 3c cc 41 83 bb f7 32 aa 3b 61 c8 31 bb
       0.007822557 -0.0040056463 0.0051940638 -0.0027127492
000200 90 72 01 bc 53 d9 c0 3b 33 64 aa 39 7f 6b 5f bb
       -0.007900849 0.005885282 0.0003249958 -0.0034091172
000210 97 4a 1d 3c 11 f8 ab 3b 78 18 f9 3b d0 78 89 3c
       0.009600303 0.0052480777 0.007601794 0.01678124
000220 64 f6 6c bb b7 37 f1 3b 68 02 1c 3c 64 70 5e 3c
       -0.0036157602 0.007361378 0.009522058 0.013576601
000230 00 74 b9 bb a8 38 57 3c 64 77 3b bc 0c 50 94 bb
       -0.00565958 0.0131360665 -0.011442039 -0.004526144
000240 ff 67 8d bc bf 03 3d 3c 02 8b 87 bc 9d 4f c4 3c
       -0.017261503 0.011536538 -0.016545776 0.023963744

weight f4 [148, 148]
000000 50 3b 2f 3d 43 54 f4 3d 60 96 77 3c 0e 69 00 3e
       0.042781174 0.11930134 0.015111536 0.12540075
000010 ca 9f ae bc 97 a3 5b 3b 93 3e d9 3d bb 5a dd 3d
       -0.021316428 0.0033514255 0.10607638 0.10808321
000020 9c 4c c4 bc 34 0b 81 3d ad c6 93 bd 20 98 88 bd
       -0.023962311 0.06300965 -0.07215629 -0.066696405
000030 11 d1 e3 bc 6e cc ae 3d 3c 5f 1a 3d 1a 1c 95 bd
       -0.027809652 0.085350856 0.03768848 -0.072807506
000040 b0 34 a1 bd c3 2c 43 bd 62 49 98 3d e4 32 90 3d
       -0.078713775 -0.04765011 0.07435872 0.070409566
000050 d9 42 14 3c 6e c9 9f bd 57 2d 84 3d 50 b3 7b bd
       0.009049141 -0.078020915 0.064539604 -0.061450303
000060 4d 3a 40 3d eb a4 7b 3c 8c b3 c5 3b 73 91 50 3e
       0.0469306 0.015359144 0.0060333665 0.20367984
000070 ab be fb bd f4 a1 cd 3c 72 89 66 3e 55 bb d2 3d
       -0.122922264 0.02510164 0.22513369 0.10289637
000080 ba ff 09 3c f4 42 d1 3a 62 6a 32 bd 57 96 28 3c
       0.008422786 0.0015965388 -0.043558486 0.01028975
000090 4d 73 c4 3d dc 05 9c 3d e6 c8 aa 3c 54 e4 21 3d
       0.095923044 0.07618305 0.020847749 0.03952439
0000a0 ff 33 3e bd 99 c0 2c 3d 41 f9 bc 3c f3 48 7c bb
       -0.046436306 0.042175863 0.023068072 -0.003849563
0000b0 8d 07 3b bb 83 d1 84 bd 66 c8 f9 3c b8 20 0f 3e
       -0.0028538436 -0.06485274 0.030491065 0.13977325
0000c0 c3 2e 90 bd 59 eb 19 bd 80 95 b0 3d 71 9e a0 3d
       -0.07040169 -0.03757796 0.08622265 0.0784272
0000d0 59 2e 7c bd 8e 08 11 bc bf 10 f6 ba a3 87 1d 3e
       -0.061567638 -0.008852137 -0.0018773301 0.15383773
0000e0 d6 dd f8 3d ba 5b ef 3d 2d 86 a9 3d 89 23 4c 3d
       0.12151687 0.11687417 0.08277545 0.049838576
0000f0 c7 ec f8 bd d7 5d a2 bc b6 cf 83 bd d9 41 9a bd
       -0.12154537 -0.019820137 -0.06436102 -0.07532091
000100 75 23 84 be 77 54 fe bd 8a 4c d6 bc ac fb 04 bd
       -0.25808302 -0.12418454 -0.026159544 -0.032466576
000110 90 d5 9c bc 55 46 b0 3d 00 71 51 bd 3a 89 fe 3d
       -0.019144803 0.08607165 -0.051133156 0.12428518
000120 06 47 03 be ee 27 a2 3d ed d8 00 be 6f 27 c3 bd
       -0.12820062 0.07917772 -0.1258275 -0.09529006
000130 76 f4 12 bd 87 7c 1d 3c 48 40 a5 bc 82 f1 75 3b
       -0.035877667 0.009612209 -0.020172253 0.0037527983
000140 d8 4d e6 bc 0d 73 84 bc 25 34 ca bc 7e 40 ad 3a
       -0.02811329 -0.016168142 -0.024683068 0.0013218073
000150 64 1e 82 bd 83 29 79 3d 2b df a0 3d 36 52 8c 3c
       -0.06353453 0.060830604 0.07855066 0.017129045
000160 ca f4 b2 3d 0f 1f 61 3e 5f 1d 7a 3d fd 6e 14 3d
       0.08738096 0.21984504 0.061063167 0.03623866
000170 56 0c f9 bd ce d4 d4 bd bc 87 8d bc 77 13 b2 3d
       -0.12160556 -0.10392152 -0.017276637 0.08695119
000180 80 18 08 3d 1e 81 a4 3d b9 42 08 3e 33 e2 1c 3e
       0.03322649 0.0803244 0.13306703 0.15320663
000190 ce 1e a5 3d 14 e5 04 3c ae 7b c5 3d 17 51 c5 bd
       0.08062516 0.008111257 0.09642731 -0.09634607
0001a0 01 7b e9 3d a9 9d 5c 3d 3f 97 94 bc aa 6f ab bd
       0.11400414 0.053861294 -0.018138526 -0.083709076
0001b0 0e 1c 08 3d 05 61 47 bd 2d 48 9a bd 7c fd de 3c
       0.03322988 -0.04867651 -0.07533298 0.02722048
0001c0 8c 2b 70 bd 29 d8 41 3c ea 56 2d bc da de a5 bd
       -0.05863528 0.011831322 -0.010579804 -0.08099146
0001d0 b3 18 4e bd f3 76 ae bd a9 6d ea bd 88 00 c9 3d
       -0.050316524 -0.085187815 -0.11446697 0.098145545
0001e0 be 46 aa bd ca c9 3d bd 2a e8 29 3d 86 cc d0 bd
       -0.08314274 -0.04633502 0.041481175 -0.1019526
0001f0 32 dc a0 3d 87 9c c2 3c ed 08 67 bc 89 3f a5 bd
       0.07854499 0.023756279 -0.014101249 -0.08068759
000200 41 b6 c9 3d 4d b5 f7 bc df 58 d4 3d 3e eb b5 bd
       0.09849215 -0.030237818 0.10368513 -0.088827595
000210 e1 ce b3 3b 18 19 d8 bd 51 b9 b9 bd be 6e 93 3d
       0.0054873084 -0.10551661 -0.090685494 0.07198857
000220 24 78 90 bd 97 76 f0 3c d6 31 f7 3d f6 ce a1 bd
       -0.07054165 0.029353423 0.12070052 -0.07900803
000230 9e b4 ef bc f4 68 ca bd ef f3 7d 3d 59 98 b5 3d
       -0.02926093 -0.098832995 0.06200021 0.08866949
000240 d4 cf 0c 3e be 4f c4 3d b0 31 f4 bc 98 77 3a 3e
       0.13751155 0.09585522 -0.02980885 0.18209684
000250 3f 81 c4 bd 76 69 3c bb 84 4e 1f 3e e0 8c 5f bd
       -0.09594964 -0.0028749383 0.15557295 -0.05457771
000260 e6 1f 59 bd 75 12 91 bc 85 4c 3d 3d b1 77 36 be
       -0.053008936 -0.017708996 0.046215553 -0.17819096
000270 d8 b1 18 3d 3f 75 1a bd 65 f8 6c be ba 4e b7 3d
       0.03727898 -0.03770947 -0.2314163 0.08950563
000280 12 33 f7 3d b7 56 10 bd 99 c6 03 be 59 a7 5a 3d
       0.12070288 -0.035238948 -0.12868728 0.05338225
000290 99 38 a2 3c 3b 9a 50 bc e8 45 8d 3d 45 81 76 bd
       0.019802378 -0.012732084 0.06898099 -0.060181875
0002a0 81 02 ff 3c 24 3d e1 3b f4 64 68 3b 7e f8 0d 3b
       0.031129124 0.0068737436 0.0035460563 0.0021663005
0002b0 77 75 01 be ea 39 16 bd bc 4d 1a 3d 15 c5 c9 bc
       -0.12642466 -0.036676325 0.03767179 -0.024630109
0002c0 6a 05 c0 bd 23 e7 52 3d 45 a6 a7 bd d5 12 fa bd
       -0.09376033 0.05148996 -0.0818601 -0.12210623
0002d0 05 c6 96 3b 52 98 db 3d e7 92 07 3d ac df e9 bd
       0.0046012425 0.10722412 0.03309908 -0.11419615
0002e0 44 d0 be 3d ff 29 03 be ff 8d 93 3d 93 83 f4 3c
       0.09317067 -0.12808989 0.07204818 0.029847896
0002f0 e7 d6 d3 3d e4 fb 9f bc c4 36 5e 3d 40 c0 14 3e
       0.10343724 -0.01952929 0.054251447 0.14526463
000300 67 38 b3 3c 8c b7 5c bd e4 56 a4 3e 9d ae c1 bd
       0.02187748 -0.05388598 0.32097542 -0.09457133
000310 1c fc 34 be 79 f7 3b 3e e0 69 f3 3c 98 5b f2 bb
       -0.17674297 0.18356122 0.029713571 -0.0073961727
000320 0d 44 1a 3d 46 85 22 bd 51 be b4 bc ad 20 fe bc
       0.037662555 -0.03967788 -0.022063406 -0.03102144
000330 f2 b6 58 3b c8 a5 55 bd 9c d7 80 bd 5c e5 68 3d
       0.0033068028 -0.052160054 -0.06291124 0.05685936
000340 3b 54 5c 3e 0d a8 97 3d 6c 4b a7 bc 1a d6 54 bd
       0.21516506 0.074051 -0.020421706 -0.051961996
000350 2a 14 5b bc 88 4f 04 bd 5b a7 22 3e 7a 46 e1 bd
       -0.013371507 -0.03230241 0.15884154 -0.109997705
000360 14 c4 1a 3e 0a c3 5b 3b 60 6e 85 3d d6 2c 09 3e
       0.1511386 0.0033533 0.06515193 0.1339601
000370 e8 1d e0 3d fa 78 d5 bc 10 d6 b0 3d 82 9f d3 bd
       0.10943204 -0.026058663 0.08634579 -0.10333158
000380 6f c6 72 bd f9 10 0c bc 11 dc aa 3c 99 bb 18 3e
       -0.059271272 -0.0085489685 0.020856889 0.14915313
000390 5b 16 5c 3d 1b 90 e2 3d f6 fe b7 bd 43 45 84 bc
       0.053732257 0.11062642 -0.08984177 -0.016146308
0003a0 5c 52 85 bd 1a 63 bd 3c 9c 91 ae bd c7 e3 3b bc
       -0.065098494 0.023118544 -0.085238665 -0.011467881
0003b0 d2 be a7 3d 4a de c4 bd bd dc db bd 1a 11 e9 ba
       0.08190693 -0.09612711 -0.10735462 -0.0017781586
0003c0 5a 55 89 bc 1c 3f 32 bd 7b 45 8d bc 73 a9 38 be
       -0.016764332 -0.043517217 -0.017245045 -0.1803339
0003d0 2c a7 a6 bd a4 97 95 3d 58 8b b7 bd 8c 17 a5 3d
       -0.08137354 0.07304314 -0.089621246 0.08061132
0003e0 e7 e4 d5 3c 5f a9 b3 3d ed 79 12 be 9e bd 22 3c
       0.026110126 0.08772539 -0.14304323 0.009932904
0003f0 82 ca 97 3d ca 43 d7 bc b4 ac 35 3b 54 90 c3 bc
       0.07411672 -0.026277442 0.0027721347 -0.023872532

bias f4 [148]
000000 36 7c 8b 3c ba d2 b7 3b 3d 11 59 3c d7 f7 03 bd
       0.017027002 0.0056098374 0.013248739 -0.03221878
000010 5e eb 69 3d 2b 50 84 bd 22 17 7c 3d e5 7d 34 bc
       0.05710923 -0.06460603 0.0615455 -0.011016344
000020 4d aa 9a bd 62 fa 09 bd 5c be 57 3c 67 4e 30 3d
       -0.075520135 -0.03368605 0.013167944 0.04304352
000030 2c 19 ae bd ce 37 98 3d b3 de d3 3c 8e 51 ed 3c
       -0.08500895 0.07432519 0.025863027 0.028969552
000040 26 da 36 bd e0 5f fe 3c 95 36 61 bb d9 00 86 3d
       -0.044641636 0.031051576 -0.0034364809 0.065431304
000050 8e 20 70 bd f0 d7 71 bd 83 12 aa 3c 12 b0 9a bd
       -0.058624797 -0.059043825 0.02076078 -0.07553114
000060 07 46 5a 3d 65 bd 68 3d ec 5f 01 3d bf e6 b8 3c
       0.05328944 0.056821246 0.03158562 0.022570966
000070 57 99 be bc 45 b2 61 bc 14 c8 71 3b af fb 05 3d
       -0.023266478 -0.013775413 0.0036892937 0.032710727
000080 c2 bd 4c bc 1a 5c 26 3c 7d e8 9e 3d cd 58 2e bc
       -0.012496414 0.010153795 0.07759187 -0.010641289
000090 b6 ce e4 3c 6f 51 a7 3d 92 86 ad bd 78 77 7e bc
       0.027930599 0.08169829 -0.08472933 -0.015531413
0000a0 c1 d0 99 3d 7c 03 bb 3c 70 b6 8f 3d bf c6 e3 3c
       0.0751052 0.02282881 0.07017219 0.02780473
0000b0 4e 49 53 3d 10 e0 03 bd 17 97 9b 3c db e5 83 bb
       0.05158358 -0.032196105 0.018992944 -0.0040252036
0000c0 d5 3f 8f bd 13 46 6a bd 2d c2 9b 3d 59 04 21 3d
       -0.06994597 -0.057195734 0.076053955 0.039310787
0000d0 70 4f 95 3d ae 95 d2 bc 4e c4 33 bd 42 0c 04 bd
       0.07290542 -0.025706138 -0.043888383 -0.032238252
0000e0 0d 74 b0 bc 3d 45 3b 3d 4a 88 8c bd c2 45 8a 3d
       -0.021539712 0.045720328 -0.068619326 0.067515865
0000f0 37 b3 57 3c 79 c8 79 3d c7 a5 9f bb 5b d6 05 bd
       0.013165287 0.0609822 -0.004872057 -0.03267513
000100 79 f7 b8 3d 80 84 c4 3d 2b 67 b3 3c 0e a5 48 bd
       0.09031577 0.09595585 0.02189978 -0.048985533
000110 61 71 f7 bc d1 23 27 3d 83 97 06 3c a0 ce bf bb
       -0.03020543 0.04080564 0.008214834 -0.005853489
000120 7a e5 90 bc 22 8f 53 bd 12 e2 00 3d 6b 13 25 3d
       -0.017687548 -0.051650174 0.031465597 0.04030172
000130 b6 fd 16 bd 7b 7a b5 bc 3d 39 6e 3d c2 49 63 3d
       -0.03686305 -0.02215313 0.058160055 0.055490263
000140 a0 d6 53 3d 85 d7 38 bd 28 9d 76 3d 2c b8 4f 3d
       0.051718354 -0.04512741 0.06020847 0.05071275
000150 3a d6 5c bd 2c 36 0b bd 81 f0 2d 3d 45 15 9b 3d
       -0.05391524 -0.03398721 0.04246569 0.07572416
000160 f7 65 f1 3c 77 69 4a bd f6 4e 88 3d b4 74 0e 3d
       0.029467566 -0.049416985 0.066556856 0.034779266
000170 df 19 83 3c 84 e6 96 bd 14 1d 74 3d 32 b4 6c bc
       0.016003547 -0.07368186 0.059598044 -0.014447259
000180 f5 57 26 bd 1a 8d 5f 3d e3 a6 a9 3d 7c 46 84 bd
       -0.040611226 0.054577924 0.08283784 -0.06458756
000190 fa 0c 9f bd 26 4d 89 3a 68 9b 8b 3d a8 33 44 bd
       -0.07766147 0.0010475263 0.06816751 -0.047900826
0001a0 32 4e 6c bd a9 a5 5c bd 8e 2f c3 3c fc ef 90 3d
       -0.05769176 -0.053868923 0.023826387 0.070770234
0001b0 34 c5 1f bd 6f 2b 15 3d 74 ae a7 bd 14 20 ac bc
       -0.039006427 0.036418375 -0.08187571 -0.02101139
0001c0 13 1a 2a 3c 36 1a 91 bd 1b 1a b8 3c 17 9a 95 bd
       0.010382193 -0.070850775 0.022473386 -0.07304781
0001d0 52 8d b8 3d be 70 39 bd 3d 0a 8f bd ef e0 5f 39
       0.0901133 -0.045273535 -0.06984375 0.00021350732
0001e0 d9 ce c0 3c 1c 5f 6c 3d 95 1c 3b 3c 74 a9 9b bd
       0.023536133 0.05770789 0.011420389 -0.0760068
0001f0 6f e8 ac bd 1a 34 73 bd 94 dd 06 bd 94 bb f2 3c
       -0.08442771 -0.05937586 -0.032926157 0.02963046
000200 f3 f3 76 3d b7 38 cd bc b8 b7 7d bc ed 62 8e 3b
       0.06029124 -0.025051458 -0.0154856965 0.004345289
000210 0b 3b 94 bc 10 ed 8d bd df 27 39 3d f0 5a 7e 3d
       -0.01809456 -0.06929982 0.04520404 0.062098444
000220 35 1f 8b 3d 1d d1 88 bd 18 99 6b 3c 8b 7c b1 bc
       0.06793062 -0.0668051 0.014379762 -0.021665832
000230 ae bd a1 3c 91 d4 9a bd fe 46 34 bd 3b b9 da 3c
       0.019743767 -0.07560075 -0.044013016 0.026699653
000240 29 08 4d bd 90 69 8e bc 05 ef 78 3d 08 8e 24 bd
       -0.05005661 -0.01738432 0.06077482 -0.040174514

weight f4 [148]
000000 c1 13 89 3f 24 6f 8b 3f 42 79 99 3f ae 42 91 3f
       1.0709153 1.0893292 1.199013 1.1348474
000010 9c ac 83 3f d3 ac 83 3f 07 8b 84 3f 44 6e 8f 3f
       1.0287051 1.0287117 1.0354928 1.1205525
000020 52 93 7f 3f 3d f7 82 3f 22 d6 7c 3f be 5e 81 3f
       0.9983417 1.0231701 0.9876424 1.0107038
000030 6a f0 85 3f 65 c8 94 3f 4f 78 90 3f cf 72 8b 3f
       1.0463994 1.1623656 1.1286715 1.0894412
000040 18 3f 85 3f 29 61 86 3f 27 2a 89 3f 8a c8 89 3f
       1.040988 1.0498401 1.0715989 1.0764325
000050 52 6c 8c 3f 3d a3 81 3f ba c7 83 3f 5e 52 7f 3f
       1.0970557 1.0127941 1.0295327 0.9973506
000060 52 01 87 3f 81 71 82 3f bb 19 89 3f 99 12 96 3f
       1.0547278 1.0190889 1.0710977 1.1724426
000070 6a 45 8c 3f 71 c1 8a 3f 92 5b 82 3f 8a 02 8b 3f
       1.0958683 1.0840284 1.0184195 1.086015
000080 20 39 8a 3f a3 a0 80 3f ef da 84 3f 27 33 8b 3f
       1.0798683 1.0049022 1.0379313 1.0874985
000090 37 05 91 3f d3 36 88 3f e2 bb 82 3f e1 b0 86 3f
       1.1329716 1.0641731 1.0213587 1.0522729
0000a0 7f f7 84 3f 23 98 83 3f 51 3c 8a 3f 4a a6 88 3f
       1.038803 1.0280803 1.0799657 1.0675747
0000b0 b3 1f 81 3f c5 bc 84 3f 7f 05 8e 3f 4b 61 81 3f
       1.0087799 1.0370108 1.1095427 1.0107816
0000c0 b2 8a 83 3f 44 01 87 3f b8 a3 87 3f 72 3e 89 3f
       1.0276701 1.0547261 1.0596838 1.0722182
0000d0 5d f1 8d 3f 0d 43 8b 3f 95 72 82 3f 22 8a 8c 3f
       1.1089283 1.0879837 1.0191218 1.0979655
0000e0 a9 7d 91 3f 69 70 8a 3f 83 18 82 3f d4 1b 89 3f
       1.1366473 1.0815555 1.016373 1.0711617
0000f0 e2 da 8a 3f 3a 41 82 3f 75 22 8a 3f 17 66 86 3f
       1.0848048 1.0176156 1.0791765 1.0499905
000100 da b4 91 3f 82 39 90 3f 96 f3 8d 3f a5 06 85 3f
       1.1383317 1.126755 1.1089962 1.0392653
000110 4d a2 87 3f ea 60 82 3f c8 8d 83 3f 27 57 91 3f
       1.0596405 1.0185826 1.0277643 1.1354722
000120 0b 93 8d 3f 44 a1 7f 3f be 29 89 3f bc c0 83 3f
       1.1060499 0.99855447 1.0715864 1.0293193
000130 80 22 91 3f c7 e1 8b 3f bf 11 82 3f 6d 69 9c 3f
       1.1338654 1.0928277 1.0161666 1.2219673
000140 99 66 89 3f 5d 45 81 3f 66 b2 7d 3f 0a e0 94 3f
       1.0734435 1.0099293 0.9910034 1.1630871
000150 63 86 86 3f 34 3c 83 3f 1d fe 82 3f fa 36 8a 3f
       1.0509762 1.0252748 1.0233799 1.0798028
000160 a6 1c 91 3f 0e 47 82 3f 5b 2f 8a 3f 81 1a 83 3f
       1.1336868 1.0177934 1.0795702 1.0242463
000170 23 4a 80 3f 75 db 85 3f 39 f7 82 3f fe f5 8e 3f
       1.0022625 1.0457598 1.0231696 1.1168821
000180 0b a0 84 3f 98 7c 8f 3f 3a c9 8c 3f 0a 94 88 3f
       1.0361341 1.1209898 1.099891 1.0670178
000190 96 2a 87 3f 93 ed 83 3f 9b 35 80 3f c4 f3 84 3f
       1.0559871 1.0306877 1.0016359 1.0386891
0001a0 54 9f 8f 3f 40 31 8c 3f 13 ad 81 3f b7 6d 87 3f
       1.1220498 1.095253 1.0130943 1.0580357
0001b0 2d 1c 84 3f ed bb 8a 3f 59 76 83 3f 00 0f 81 3f
       1.0321099 1.08386 1.0270492 1.0082703
0001c0 e1 15 8c 3f 1e d2 84 3f 53 b4 83 3f 1e 39 85 3f
       1.0944177 1.0376623 1.0289406 1.0408056
0001d0 6b b3 90 3f 72 4d 84 3f 1a cf 82 3f 59 f7 86 3f
       1.1304754 1.0336134 1.0219452 1.0544235
0001e0 e9 d9 85 3f ac 6b 7e 3f 9e ef 8e 3f 91 66 81 3f
       1.0457126 0.99383044 1.1166875 1.0109426
0001f0 5f c0 82 3f 6f ea 87 3f b4 a6 86 3f d3 37 8f 3f
       1.0214957 1.0618418 1.0519624 1.1188911
000200 5f b5 83 3f 78 a7 88 3f 60 0f 89 3f cd b9 8c 3f
       1.0289725 1.0676107 1.0707817 1.0994202
000210 f7 82 82 3f c2 38 8c 3f 55 9a 83 3f ba 20 82 3f
       1.0196217 1.0954821 1.0281473 1.0166237
000220 39 fc 8b 3f 25 87 8c 3f ce 36 83 3f 7b 92 90 3f
       1.0936347 1.0978743 1.02511 1.1294702
000230 30 ff 8f 3f 3b b5 82 3f ac 2c 87 3f db 67 95 3f
       1.1249752 1.0211557 1.0560508 1.1672319
000240 92 ad 83 3f 81 ef 81 3f 5c 13 8e 3f 9f 28 88 3f
       1.0287344 1.0151216 1.1099658 1.0637397

bias f4 [148]
000000 a5 5b 67 3b 1b 8b 7f bb 0e 22 97 ba 08 54 61 3c
       0.0035302427 -0.0038992825 -0.0011530535 0.013752945
000010 81 dc 59 3c 97 e3 42 bc f7 4b 4d bb 19 79 3c 3c
       0.013297201 -0.011895082 -0.0031325796 0.011503481
000020 6b c2 8a bb 2e 5f 93 3c f8 fe 4f bc 1c 34 1d 3c
       -0.004234602 0.017989721 -0.012695067 0.009594943
000030 74 79 2e 3c 4f af 57 3c 45 df 48 3c fe e5 f2 3b
       0.010649074 0.013164355 0.012260263 0.007412671
000040 5a 53 13 3b 18 5e 1e 3c f5 dc 56 3c 34 16 fb 3b
       0.0022480101 0.009665988 0.013114204 0.007662559
000050 41 33 2b bc d4 6c 9d 3c 66 a7 0c 3c e9 4a 14 bc
       -0.010449232 0.019216932 0.008584833 -0.009051063
000060 5f 1c 85 ba 9e f1 30 bc 1d 55 11 3d 8f 6c c2 bc
       -0.001015555 -0.0107997935 0.03548156 -0.023733405
000070 62 66 91 3c 1f 95 8c 3c 33 d0 f2 bb 1c dd a1 bc
       0.017749015 0.01716095 -0.007410073 -0.019758753
000080 f5 9a bb bb 4d fd 17 3b 8f f4 7b bc 3a 0b e0 bc
       -0.0057252594 0.002319175 -0.0153781315 -0.027349103
000090 42 34 1f bc e3 d5 32 bb f8 b9 b5 3c f2 c1 6b 3c
       -0.009717049 -0.002728813 0.022183403 0.014389502
0000a0 35 30 2c 3c 14 61 ec 3b 34 3b aa 3b 70 1d b2 bb
       0.01050954 0.007213721 0.005195046 -0.005435638
0000b0 09 aa e8 bb 50 a2 59 3b 96 fb ef 3c 32 bb 86 3b
       -0.007100348 0.0033208318 0.02929477 0.004111671
0000c0 bd 58 26 3c 4c ea 02 3d 61 d1 62 3c 39 27 45 bc
       0.010152993 0.031961724 0.013843865 -0.012033277
0000d0 b5 1e 07 3d 3b 80 f8 37 3b 76 6d 3c 3f 1a 43 3b
       0.03298827 2.9623616e-05 0.01449352 0.0029770283
0000e0 27 bf a2 bc 72 b4 47 3b c4 1c 57 3c 29 81 b2 3b
       -0.01986654 0.0030472544 0.013129417 0.005447526
0000f0 4f ef a3 3c 0c 76 a5 bb 86 1f 9b 3c 9e 94 89 3b
       0.020011572 -0.0050494727 0.01893593 0.0041986248
000100 2c d2 91 bc b4 e8 cf 3c 6f dd 93 bb 0b f1 de 3b
       -0.017800413 0.025379516 -0.004512481 0.006803637
000110 de 80 5c 3c 30 62 b4 3c 6d 88 0a bc 8e f5 db 3c
       0.013458459 0.022019476 -0.008455378 0.026850488
000120 e9 b3 84 3c 13 58 97 3c f5 b7 46 bc fa 4b 4d bb
       0.01619907 0.018474614 -0.01212882 -0.0031325803
000130 8c a4 84 bc 64 f0 1b bc 21 a4 03 3c b4 7e 9e bb
       -0.016191743 -0.009517763 0.008034737 -0.0048368815
000140 23 13 cc ba 53 8a 51 bb 6d 6c 0e bb e1 51 8a bc
       -0.0015569668 -0.0031973317 -0.0021732107 -0.016884746
000150 d1 27 c3 3b 81 a2 30 3c 8e 1c 53 3c 04 29 9b bc
       0.005955674 0.010780931 0.012885226 -0.018940456
000160 d5 8c 09 ba 69 49 13 3c ab b3 69 bc 04 8a 0a bc
       -0.0005247121 0.00898967 -0.014264028 -0.008455757
000170 a0 db 75 3a 61 1a 12 3c 96 17 85 3a e1 bc 0b 3c
       0.0009378735 0.008917422 0.0010154124 0.008528919
000180 8f f3 2b 3c 89 03 8d 3c d9 16 a5 b9 8d 1d bd bb
       0.010495081 0.0172136 -0.00031488275 -0.005771345
000190 58 66 bf 3b 67 15 80 3b f2 0b 07 bb 32 2c 60 3b
       0.0058410577 0.0039088014 -0.0020606485 0.003420603
0001a0 7e e2 28 3b 00 7d cb b9 49 08 e0 bb d5 34 c2 3c
       0.0025769765 -0.0003881231 -0.006836925 0.023706833
0001b0 4b 34 c4 3c 83 00 1c 3c da 4f 08 3c 05 c0 b8 39
       0.023950716 0.009521606 0.008319819 0.0003523828
0001c0 9f 08 e2 bc 0d b2 c3 bc 7f 54 d4 bb ed 4b 2e 3c
       -0.027592001 -0.023888612 -0.0064797993 0.010638219
0001d0 dd 9a 17 3c 00 ae 80 3c 90 eb 88 3b 74 eb 26 bc
       0.009253231 0.01570797 0.004178472 -0.010187972
0001e0 e4 89 ba 3c a4 16 2d bc 61 76 69 3c 6d 69 eb 3a
       0.02277083 -0.01056448 0.014249415 0.0017960496
0001f0 00 61 94 3c 98 51 7b 3c f4 25 66 bc 1d ed c5 bb
       0.01811266 0.015339278 -0.014047135 -0.006040229
000200 b6 81 8a b9 09 da bd bc 26 32 15 bb 18 4f ef 3c
       -0.00026418053 -0.023175256 -0.0022765487 0.02921252
000210 a6 2d 08 3c 37 06 71 3a a0 3f f2 3c 0d 88 44 3c
       0.008311665 0.00091943465 0.029571354 0.011995328
000220 a1 e7 fe 3b 62 fb 07 3d c1 79 9f 3b 72 46 60 bc
       0.007779077 0.03319872 0.004866809 -0.0136886705
000230 78 11 ee bc 01 eb 30 3c 14 b6 a7 3c 9b a1 b0 3b
       -0.029061064 0.010798217 0.020472564 0.0053903586
000240 bb 5d 97 b9 4e 5d 51 3b 04 62 00 3d 6e 78 b0 3c
       -0.000288708 0.0031946483 0.031343475 0.0215418

weight f4 [1, 148]
000000 03 9f b5 bd 6f 9c 86 3e 2d 06 5e 3e f8 f1 15 be
       -0.0886822 0.26291224 0.21682043 -0.14643085
000010 d1 c9 5b bd 15 8f 5f 3d 8c e9 07 be 88 27 2c be
       -0.053659264 0.054579813 -0.13272685 -0.16811955
000020 bb ae 98 bc e6 ad 7e bd 7c 1d 9e 3b 47 f1 bc 3d
       -0.018638005 -0.06217756 0.004825292 0.092257075
000030 19 0f 63 3e 84 67 23 be 67 0c 25 3e fe d7 85 bd
       0.22173728 -0.15957457 0.16118012 -0.06535338
000040 28 c3 a3 3e 54 e7 6c bd b4 08 83 be ce 71 18 3e
       0.3198483 -0.0578378 -0.25592577 0.14887163
000050 20 06 5d be 51 b4 d2 bc 77 43 7e 3e 37 90 a7 bb
       -0.21584368 -0.025720747 0.24830423 -0.0051136273
000060 dc 99 4c 3e 15 64 58 3d e1 09 24 be 5f e4 56 3e
       0.19980568 0.05282982 -0.16019394 0.20985554
000070 2d 7c 25 be d2 8b 18 3e a1 47 cc bd 2a 55 81 bd
       -0.1616065 0.14897087 -0.099746 -0.06315072
000080 24 89 3d 3e 71 01 37 be b4 c7 85 bd 63 00 86 3e
       0.18509346 -0.17871644 -0.06532231 0.2617217
000090 5e ff 22 be ad 07 ec 3d fd 6d f7 bc 5e 32 e5 3d
       -0.15917727 0.115249015 -0.030203814 0.111912474
0000a0 f1 fa 0b be 49 de 85 be 04 2b 0e 3e d3 3a 8d 3d
       -0.13669945 -0.26146153 0.13883597 0.068959855
0000b0 e7 6e 76 bd d7 0e 22 3e e6 83 c2 3d 5d 48 04 3d
       -0.06016436 0.15825973 0.09497814 0.032295574
0000c0 40 96 2f bd d5 d9 88 3d 36 80 c4 3d cc ea ae 3e
       -0.0428679 0.06682173 0.09594767 0.3416351
0000d0 b3 d9 ca 3d 48 cc ec bd d8 79 09 be 32 55 3e 3e
       0.09904804 -0.11562401 -0.13425386 0.18587187
0000e0 e1 5a 35 be 22 7f 40 be 25 db 3a bd 45 18 64 be
       -0.17710449 -0.18798497 -0.04561915 -0.22274883
0000f0 05 3f 32 3e 63 50 85 be df 61 14 be ef 34 4a bd
       0.17406853 -0.26037893 -0.1449046 -0.049366888
000100 45 61 9a 3e 00 c2 60 3e b9 72 16 be de 19 22 3e
       0.30152336 0.21949005 -0.146922 0.1583018
000110 45 c3 e5 3d f5 9c ae 3d 12 66 4d bd 3f 69 13 be
       0.11218885 0.08526031 -0.05014617 -0.14395617
000120 01 79 4d be 80 63 9b 3a d9 eb 0b 3e 11 c0 4f bd
       -0.2006569 0.0011855215 0.13664187 -0.05072028
000130 e7 e0 75 be f1 6b 4a 3e 43 88 84 3e 0e 94 76 be
       -0.24011575 0.19767739 0.2588521 -0.24079916
000140 fa a9 c9 3d 73 4c cc bb f0 d7 17 3c 94 97 8e 3e
       0.098468736 -0.0062346994 0.009267792 0.2785002
000150 df dd f2 bd 18 1d 17 3e 55 c8 61 3d a1 e8 96 3e
       -0.11858725 0.14757192 0.055122692 0.29474357
000160 be f4 2c be 2e e3 07 be 24 28 d7 bd 72 d6 ac bd
       -0.16890237 -0.13270256 -0.10505703 -0.0843934
000170 63 e5 96 3d e6 d7 a1 be 98 7e d9 3c ed f0 19 be
       0.07367971 -0.3161003 0.026549622 -0.15033312
000180 f7 b3 38 be db 13 25 be d3 b8 26 be 10 4e 5f 3e
       -0.18037401 -0.16120856 -0.16281442 0.21807122
000190 67 36 5b be 6d f6 70 3e 0e 47 99 3d b6 e2 83 3d
       -0.21407472 0.23531504 0.07484256 0.06439726
0001a0 77 2e 36 be 19 15 eb bd b2 e2 9d 3d a4 27 0a be
       -0.17791162 -0.114786334 0.07709254 -0.13491684
0001b0 74 22 99 bc 4c f2 89 3e 38 07 c4 bd 0f d8 58 bd
       -0.018693186 0.2694267 -0.09571689 -0.052940425
0001c0 4a b5 04 3e 8a a9 ee 3d 02 4b f9 3d 3e 1f d0 3d
       0.12959781 0.11653431 0.1217251 0.10162209
0001d0 8f c3 4a be fb 18 46 3e 5d d8 2a bd 88 11 db 3d
       -0.19801162 0.19345467 -0.041710246 0.10696703
0001e0 e0 5e 81 3e 35 4e a2 3a a1 2b ee bd 7b 2a 0a 3e
       0.25267696 0.0012382927 -0.11629415 0.13492768
0001f0 37 9b d2 bd 29 4b 58 3e ed 94 83 3e da a8 8f be
       -0.10283511 0.21122421 0.2569956 -0.2805851
000200 f7 10 fe 3d af ad 81 3d 82 a9 03 be fb a9 22 3e
       0.124055795 0.06331956 -0.12857631 0.15885155
000210 82 f2 3c 3e af 5f 32 be d9 d2 b8 bc e9 c3 c2 3c
       0.18451884 -0.17419313 -0.022561477 0.023775058
000220 37 d8 3d 3e 2f f5 9b 3d 93 f2 4e be 19 69 3b be
       0.1853951 0.076151244 -0.20209722 -0.1830181
000230 ba 53 27 3e 66 02 4d 3e 88 f9 ac bc a0 cb be be
       0.16340533 0.20020446 -0.02111508 -0.3726473
000240 2d c1 9e 3d 25 db 5d be 2e ba 7f 3e 4b 60 ca bd
       0.07751689 -0.21665628 0.24973366 -0.09881648
